Tutorial_Test_ver1_1/Assets/5_UnityPickUpTips/2_Other/20_Onnx_MachineLearning/MNIST/MNIST_PyTorch_Model.onnx (onnx, 318577 bytes, 4 tensors)

l1.weight f4 [100, 784]
00000000: 812f 45bb 08fb ecbc a507 2e3c 4a35 043d
00000010: 801f 03bd 77a6 d93c 470d 8b3c 5a4f a73c
00000020: c8ee e03c 9ebd ad3c e175 bebc dc65 8cbb
00000030: 7ffb 90bd 4457 41bc 0952 333d 4214 b43c
00000040: 47c6 96bc 4adc 183a 437c 89bc 4a43 dfbb
00000050: 5ca0 973c 571b 2cbc f766 9ebc 6e0c bc3b
00000060: 318d eb3c 2aed 3abc c72d a4bc 583b 6fbc
00000070: 05e9 9e3c 43b6 e03c 9c6e bf3c 1a51 f1bc
00000080: be25 073d c9db 833c 47eb 5fbe e3d2 6fbe
00000090: 4536 e9bd f0b4 2abe 67c1 0dbe 00de 08be
000000a0: 1cfb 3dbe 5b09 e5bd f2ee 11be 6f9f 62be
000000b0: e9cf 05bd fc16 f2bd 7fa1 88be 7faa 34be
000000c0: 5ce6 4fbe 5329 9abe 3c75 8abe 4204 4abe
000000d0: c68c 11bd 0e9a 63bc f800 e4bc 9721 133c
000000e0: 26b2 0abd 4a46 e23c d6fa a1bb d842 34be
000000f0: 85d0 49be 9cc0 543d 9ca7 ea3d 1eb1 c8bd
00000100: 244d 313e c195 963e 6057 a13d 81d9 f73d
00000110: c251 e83d 7da1 afbd 57a5 1c3d 168f 37be
00000120: 87eb 86be c08f 51be d8cd 4bbe a2d6 aabd
00000130: 2357 9bbd b3d7 95bd a927 48be 4d4d 3e3e
00000140: c6a6 8b3e 3d61 2c3e aea4 9ebc 2ea5 c83c
00000150: 9c85 493c 81e7 2bbb bf9b 35be b6ff fbbd
00000160: 8f02 263e bec9 943e 34b8 a53e bcfd 443e
00000170: 2bf9 033e 4ef0 8c3e e7b5 723e f69a 5d3e
00000180: 38b9 0f3e c438 b4bb 06be 81bd 4fc6 f1bd
00000190: 8c03 a9bd bd44 3ebe 1e8c bfbe 78aa 7cbd
000001a0: 22c7 2abd 4c4b 413d 2b0d 42bd 916a fbbd
000001b0: 415a 4c3d 246f 0a3e a828 2a3e 2595 333a
000001c0: c01d 11bd eb66 13bd 6c79 1ebe 8c53 99be
000001d0: b458 813d 406d 503e e4db 8f3e 24f9 1e3e
000001e0: c4ae 153e 4c28 213e 708d 8a3e 4172 163e
000001f0: e625 cb3d 6c3e e8bc 3b71 60be 208c 76be
00000200: 6cdc 19be 18c9 babd 6e63 f9bd 70db 24bd
00000210: 4d9f 74bd b69d 36be 6090 46be 95f3 533d
00000220: 4846 393e 1e57 2f3c 2c3b 68be a22e d5bd
00000230: fc7a 403c 2e1f c5bc 5fb4 7abd 214e 8b3d
00000240: ac93 c63e 219a 803e b5f1 653e 76db dbbd
00000250: ee27 d1bd 6c3d d6bc 1249 c7bd 6711 4bbe
00000260: 4c08 20be 1147 57be a645 25be ede8 ddbd
00000270: 4be6 0bbd 4dbd 823c 6adb 84bc c958 11be
00000280: 0b74 3ebd b76d 21be 8df9 4cbe 1984 b23c
00000290: f721 6a3d d5c6 4bbd 2a94 afbd eb51 053d
000002a0: 9c9e e23b 0422 653d b90c 29bd a28a 17bc
000002b0: 1136 a83e c33f 903e 6da6 5e3d 432a 42be
000002c0: e326 8ebe 3b17 9bbe 969e eabe 84df b0be
000002d0: 64ca 98be f320 80be c8d1 79be cd4a 71be
000002e0: 9ae0 1abe 37db 0dbe 0c88 32be 320c 18be
000002f0: 7be3 38be f925 7ebe 9202 83be 651f bebd
00000300: d18e 41bc 3635 bb3c 60e7 8a3e 2326 ee3d
00000310: 6a3f a73b be1e aebd c252 373d d38a 1fbd
00000320: ef09 e83d b0aa 843a e12b bbbd a44c 74be
00000330: e2e5 92be 15cc 8ebe 8119 c4be 0da3 3bbe
00000340: 65df 97be 50ed 92be c72e 43be 81a0 68be
00000350: e1af 45be cdf3 1fbe 59bd 79be de1d 2abe
00000360: 8d11 ccbd c326 0cbe 97e4 41be 9cbb 68be
00000370: dc46 6d3b 2bc5 9f3d b613 9c3e f14b 233e
00000380: b5e3 60be 5c80 39be 8c6d 473d 33e0 03be
00000390: c8d0 24be e4ee eabd 72b7 d9bd ff4d 95be
000003a0: 8cc7 c2be 4352 45be bcd1 57be 331d c5bd
000003b0: c2de c7bd 0888 0fbc fca0 abbd 5393 cabd
000003c0: 5b09 85be fe21 45be 4d90 44be 28b3 3a3c
000003d0: 592a 213d 677f 943d ae0d c6bd 695a fabd
000003e0: 2ae9 c6bb 7d78 803e 1ab7 18be 3029 10be
000003f0: f2f2 03be 8a4c 6dbe 51b5 17be 1301 97be
-0.003008813 -0.028928295 0.01062194 0.032277383 -0.032012463 0.026568634 0.016974105 0.02042358
0.02745761 0.02120858 -0.023249568 -0.0042846035 -0.07079219 -0.011800591 0.043779407 0.021982316
-0.018405093 0.00058311655 -0.016782885 -0.0068134414 0.018509082 -0.010504565 -0.019336207 0.0057387864
0.028753849 -0.011409083 -0.02004136 -0.014601551 0.019398222 0.02743066 0.023368172 -0.029457618
0.032994978 0.016096013 -0.21867095 -0.2342029 -0.11387304 -0.16670585 -0.13843308 -0.13365936
-0.18552822 -0.11183425 -0.14251307 -0.22131132 -0.03266898 -0.1182079 -0.26685712 -0.17643164
-0.20302719 -0.30109653 -0.27042568 -0.19728187 -0.035534643 -0.01389171 -0.027832493 0.008980176
-0.0338613 0.027621407 -0.004943232 -0.17603624 -0.1970845 0.0519415 0.1145775 -0.097994074
0.17314583 0.29411128 0.078779936 0.121020325 0.11343719 -0.08575723 0.038243618 -0.17925677
-0.26351568 -0.20464993 -0.19902742 -0.08341719 -0.075849794 -0.07316532 -0.19546379 0.18584175
0.27275676 0.16833968 -0.019365635 0.024492826 0.012299921 -0.0026230516 -0.17735194 -0.12304632
0.16211914 0.29060167 0.32367098 0.19237417 0.12888019 0.27527088 0.23702203 0.21641144
0.14035499 -0.005499931 -0.06335072 -0.118054025 -0.0825263 -0.18580909 -0.37411588 -0.06168601
-0.041693814 0.04719095 -0.04737584 -0.12276185 0.04989076 0.1351896 0.16617072 0.00068505324
-0.035428762 -0.035986822 -0.15476006 -0.29946554 0.06315747 0.20354176 0.2809745 0.15524727
0.14617449 0.15738028 0.27061033 0.14692022 0.09919338 -0.028350078 -0.21918194 -0.24076891
-0.1502549 -0.09120387 -0.12177168 -0.040248334 -0.059722234 -0.178336 -0.19391012 0.05174597
0.18093216 0.010701923 -0.22678822 -0.10409285 0.011748072 -0.02406272 -0.06120717 0.06802011
0.3878454 0.2511759 0.22455485 -0.10735218 -0.10212694 -0.026152335 -0.09730734 -0.19830857
-0.15628165 -0.21023203 -0.1613985 -0.10835443 -0.03415517 0.015959406 -0.016217906 -0.14194025
-0.046497386 -0.15764509 -0.20017071 0.021791505 0.057161298 -0.049750168 -0.08573182 0.032548826
0.0069158804 0.055940643 -0.0412719 -0.009249361 0.3285375 0.28173646 0.054357935 -0.18961434
-0.27764043 -0.3029116 -0.45824116 -0.3454553 -0.29841912 -0.25025138 -0.24396431 -0.2356369
-0.15124741 -0.13853155 -0.1743471 -0.14848402 -0.18055527 -0.24819173 -0.25587898 -0.09283332
-0.011813835 0.022852521 0.2712965 0.11628368 0.005103995 -0.08501957 0.04475666 -0.038950752
0.1133002 0.001012167 -0.091392286 -0.23857361 -0.28691012 -0.27890077 -0.38300708 -0.18323918
-0.29662624 -0.2869668 -0.19060813 -0.22717477 -0.19305374 -0.15620346 -0.24388637 -0.16612956
-0.09964285 -0.13686661 -0.18934856 -0.22727817 0.0036205566 0.07801279 0.30483788 0.15946938
-0.21961863 -0.18115371 0.048688456 -0.12878494 -0.16095269 -0.11471346 -0.106306925 -0.2916107
-0.38042867 -0.19269662 -0.21076101 -0.0962471 -0.097592846 -0.00876046 -0.08380315 -0.09891381
-0.259837 -0.19251248 -0.19195671 0.011395253 0.039347026 0.072508626 -0.09670578 -0.122242756
-0.006070276 0.25091925 -0.14913598 -0.14078212 -0.12885645 -0.23173729 -0.1481526 -0.29493007

l1.bias f4 [100]
00000000: ff12 b43d 2d63 bc3d 68f9 a03d a150 0cbe
00000010: f205 2a3e 71d3 40bd a909 3b3e 863f 543e
00000020: 7fe5 023e 2d16 9fbe f4ca 613e ccdb 923e
00000030: 8cc9 95be ef78 8d3e 6517 75be e3de 843d
00000040: 7f0f 1abe db84 88be 630b 623e 5a56 71be
00000050: 1d3d 163e 3241 61be d6df 74be 534c 2b3e
00000060: 5695 d73c c605 fe3d d30a d4be bcbb 25be
00000070: 1ef9 90ba f601 523c c4ae a73d 8fcd b23c
00000080: 55fb b93e d4c0 8fbe dc88 803b b44a f83d
00000090: 1bb8 82bc 1fd3 88be 125a 673e 257f fc3d
000000a0: 69d5 893d 8bfc c63c 8776 e4bb 4f98 103d
000000b0: 015d adbe c1f8 c83d 78d2 363e 1c25 b63c
000000c0: bb97 ec3d 9761 ea3c 13d7 3fbd 892d b93d
000000d0: 662f 41bb 1e12 603d 287d ffbd 6f23 853c
000000e0: c2d1 9bbb e92c 953c b3aa a43c a93c 1dbd
000000f0: f002 253e 44a9 96ba 28f9 dfbc b359 473e
00000100: 84fc 193e 5873 3f3e fa6b bd3c 7094 5a3d
00000110: 01b5 153e 61ed c2bd fd74 d43d 4830 03bd
00000120: 56d1 36be e2dc 6fbe e99f f43d 9f53 febd
00000130: 944b a73d c4a2 57be cdce 17bd 0e04 813d
00000140: 7e7a 393e 72c6 ecbc 3b58 f3bb 8c00 583d
00000150: 947e ffbd 8643 83be 4c4e 30be e314 433e
00000160: 9150 943d fbf9 893e fe77 473e 8388 64bd
00000170: 27b3 e1bc 0e18 80be 4272 90be c188 c83d
00000180: 0f45 45bd 4501 19bb 6291 8abd a09d fcbb
0.08792686 0.09198604 0.078600705 -0.13702632 0.1660383 -0.047076646 0.18265404 0.20727357
0.12782858 -0.31071606 0.22050077 0.28683317 -0.2925533 0.27631328 -0.23934706 0.06487825
-0.15044974 -0.2666386 0.22074656 -0.23568097 0.1467175 -0.21997526 -0.23913512 0.16728334
0.026316326 0.12403445 -0.41414508 -0.16184896 -0.0011060571 0.01281785 0.08187631 0.021826534
0.36324564 -0.28076804 0.003922565 0.121236235 -0.015956929 -0.26723573 0.22592953 0.123289384
0.06730158 0.024290344 -0.0069721374 0.035301503 -0.3386002 0.09813071 0.17853725 0.022234492
0.11552378 0.028610988 -0.04683597 0.09041888 -0.0029477715 0.054704778 -0.124750435 0.016252248
-0.0047552297 0.018209891 0.020100927 -0.03838793 0.16114402 -0.0011494537 -0.027340487 0.19467811
0.15037733 0.18696344 0.023122776 0.053364217 0.14619829 -0.09517933 0.10373876 -0.032028466
-0.17853293 -0.23424104 0.11944563 -0.12418293 0.08168712 -0.21058184 -0.037062455 0.062996015
0.18113133 -0.02890322 -0.0074262894 0.052734897 -0.12475315 -0.25637454 -0.17217368 0.19050936
0.07241929 0.26948532 0.19479367 -0.05579425 -0.027551247 -0.25018352 -0.28212172 0.09791709
-0.048161563 -0.0023346704 -0.06766011 -0.00770922

l2.weight f4 [10, 100]
00000000: 2f51 11be 0fae d9be 5877 b3be 0f88 033f
00000010: dd5b 1cbf c0aa 83bf 4a15 e8bc 2f8c 7f3c
00000020: 3e64 643e a7be fbbe f4b5 84be e3b3 3cbf
00000030: 7505 3ebf f12f 953e bb4e b7be bb3e e13e
00000040: 4ac2 15bf b37c 173e 902e 17bf ae6a e9be
00000050: e684 903e 3fc3 eebe 5863 d13c 0585 e2be
00000060: aece 863e 3a2b debe 3150 dd3e 968d 1dbf
00000070: e339 bb3e b03c eabd cbbc a83c ff65 bdbe
00000080: aa43 c03e 98b5 873e 9488 b83e 99dd 1fbf
00000090: cdbd 5bbe 3cfc dfbe 75c0 9a3e b4ec a33e
000000a0: 45af eb3e 7123 913e 095d fe3e 2dd2 133f
000000b0: 6d0e 4f3e 5d5f 0d3f 5fad db3c 2cd2 163e
000000c0: 1b24 10bf f97e 23bf aca7 3fbf 2239 3fbe
000000d0: b659 43bf 3103 b73e 4866 f0be 97ee b73e
000000e0: 7754 8f3d 7dbb e33d 0993 943e 506a 09bf
000000f0: 7845 163e 2d53 5fbf e284 123f d05a eabe
00000100: cf1b 2fbe 3c9c 87bf eef1 37bf dbb7 043f
00000110: b0eb 563e 9708 e6be f4af 52bf c421 67bd
00000120: b45a 163e 49f4 1b3e ad77 d83d 042f bbbe
00000130: ca0b ea3e c999 0e3e 6869 54be 55ba dcbe
00000140: c317 5a3d 85ae e8be ad7e 23bf 9905 eabd
00000150: c426 2c3e dca8 a33e 78b1 2abf d81e 0a3f
00000160: 79f9 22bf 63fa 44bf eaa5 23bf 378d b93e
00000170: 4395 28be cbdb 35bd e895 353e 6199 aa3e
00000180: fda5 5f3e 46ca 963e 4673 c43e cb14 a0bd
00000190: dcc6 82be 7908 b5be 108b d2be b0fc e9be
000001a0: 4516 c4be 001a a43e 358b edbd 3c60 fd3e
000001b0: 3d6e b13e 351f 1b3b 983f 0f3f 9404 2fbf
000001c0: bd0f f2bd a05f ccbe 6438 193f 6f69 863e
000001d0: a6fa 97be 0c59 15bf cb52 00bf 8eeb 2c3d
000001e0: 1f4a 683f 1995 343e 55f3 41be db99 0bbf
000001f0: f204 413e 276c 0d3f d8b1 d4be 3dcb f6be
00000200: 9a54 d0be cfe5 0d3e e1be 773e 67c6 fd3e
00000210: 41c0 913e 5b72 9dbe 94fa b73e aa83 a53d
00000220: 74f1 913e 741d babe f0ae 9dbe 2623 b7bd
00000230: 3336 1dbf 2a55 3f3e 1ccc d4be 1297 023f
00000240: 9e84 6cbe b8fa 3e3f d2d2 94be 2554 4d3e
00000250: 70fe eb3e fe89 e13d 7837 0b3f e880 193e
00000260: 9af2 8c3e 3688 dc3d f0e7 bf3d 9bb6 95be
00000270: 64c7 ee3d 558f 23bf bb7f 8e3d 6e62 433e
00000280: bf34 0d3e 6617 b03e d876 b53e f220 0d3f
00000290: d2d4 6f3e 6488 9a3d 5453 a63e 58ec 053f
000002a0: 91f3 96be 854b 8c3e dd88 d53e cfaf fc3e
000002b0: 83d0 09bf afc8 c9be d111 3cbf cc1f c0be
000002c0: e91c 46bf 1339 0abf cfdf eebe 19a4 ce3e
000002d0: abf2 30be 90b8 9dbe c521 ed3e 07d5 ef3e
000002e0: 0063 33bf f4fd cbbe 5022 8a3e d604 593e
000002f0: 801e e03e e206 0fbc db65 093f 0a40 09bf
00000300: 7b90 ad3e 6282 08bf 4b54 383e d935 27bf
00000310: 178f aabe 53f4 5cbe a990 903e b723 8d3e
00000320: 4dac 533f 6963 d9bd 876f 37bd ec54 103f
00000330: 2653 adbe a9a6 3c3f 3b63 17be 314c 633d
00000340: 408f 06bf 2f05 b33e 1663 32be 2cf4 aebe
00000350: 450d ba3e f791 fa3e 10ac 523e 1ca2 3bbf
00000360: c5a5 deb9 2a0e 84be 0b09 b6be a1ef 3bbe
00000370: f16f 08bf c064 a0be 71bf 203f 6569 a0be
00000380: ab25 d43e 177d 583e ac5c 943e 3332 0f3f
00000390: 233b 01bf 9a35 44bf 87f8 453d 6c37 ba3e
000003a0: 1376 383e 5015 a63e 6896 67bb 9e2c 133d
000003b0: 2a32 23bf 56cb d43e dfaa 27bf c278 01bd
000003c0: 2a50 a9be 9a83 a5bf e224 66bf af08 68be
000003d0: c56d c23c ef9f 033f 575c 773e 6c5f 513e
000003e0: 308f 9bbd 3aec 08be cd86 e13e fcb7 24bf
000003f0: 734a 3cbf 252a cbbe d78e ce3e cfc0 11bf
-0.14191125 -0.4251561 -0.3505199 0.51379484 -0.6107767 -1.0286484 -0.028330464 0.015597387
0.22303864 -0.49168894 -0.2592007 -0.73711985 -0.74227077 0.2913814 -0.35802254 0.43993172
-0.58499587 0.14793663 -0.59055424 -0.45589203 0.28226393 -0.46633336 0.025560066 -0.4424211
0.2632956 -0.43392354 0.43225244 -0.6154417 0.36567602 -0.114373565 0.020597836 -0.3699188
0.37551624 0.26505733 0.360417 -0.62447506 -0.21459122 -0.43747127 0.30224958 0.32016528
0.46032158 0.28347352 0.49680355 0.5774258 0.20220347 0.5522364 0.026816068 0.14728612
-0.5630509 -0.6386562 -0.7486522 -0.18674138 -0.76308763 0.35744622 -0.46953034 0.35924217
0.06998532 0.11119745 0.2901843 -0.53677845 0.14674938 -0.8723629 0.57234013 -0.4577241
-0.17100452 -1.0594554 -0.7185353 0.5184304 0.20988345 -0.4492843 -0.82299733 -0.056428686
0.14683038 0.15229906 0.10569701 -0.36559308 0.4571212 0.13925852 -0.20743334 -0.4311091
0.053245317 -0.45445648 -0.63865167 -0.11426849 0.16811663 0.31964767 -0.66677046 0.53953314
-0.63661915 -0.7694456 -0.6392504 0.3624055 -0.16463189 -0.044399064 0.17732966 0.33320144
0.21840663 0.29451197 0.38369197 -0.07816466 -0.25542343 -0.35358027 -0.4112172 -0.45700598
-0.3829824 0.32051086 -0.11598817 0.49487484 0.34654418 0.0023669724 0.5595641 -0.6836636
-0.11819408 -0.39916706 0.5985167 0.26252314 -0.29683417 -0.58339 -0.5012633 0.04221683
0.907381 0.17635001 -0.1894048 -0.5453164 0.18849543 0.5524315 -0.41541934 -0.48201934
-0.40689546 0.13857196 0.24193908 0.4956543 0.2846699 -0.3075131 0.35933363 0.080817536
0.28504527 -0.36350596 -0.3079753 -0.08942251 -0.61410826 0.18684831 -0.41561973 0.51011765
-0.23097464 0.74601316 -0.29067093 0.2005163 0.46092558 0.11012648 0.54381514 0.1499058
0.2752884 0.10768168 0.093704104 -0.2924088 0.116591245 -0.6389058 0.069579564 0.19080517
0.13789652 0.34392852 0.35442233 0.55128396 0.23421028 0.07545546 0.3248545 0.52313757
-0.294827 0.27401367 0.4170598 0.4935288 -0.5383379 -0.39410922 -0.73464686 -0.3752426
-0.77387863 -0.5399334 -0.46655127 0.40359572 -0.1728007 -0.30804873 0.46314827 0.46842214
-0.70072937 -0.39842188 0.26979303 0.21193251 0.4377327 -0.008729668 0.53671044 -0.5361334
0.33899292 -0.5332395 0.18000905 -0.6531654 -0.33312294 -0.21577577 0.28235367 0.2756631
0.82684785 -0.10614664 -0.044784095 0.5637958 -0.338525 0.73691803 -0.14783947 0.055492584
-0.5256233 0.34964892 -0.17420611 -0.34170663 0.3633825 0.48939487 0.20573449 -0.73294234
-0.00042466648 -0.25792056 -0.35553774 -0.1835313 -0.5329581 -0.31326866 0.62792116 -0.3133041
0.41434988 0.21141468 0.28976953 0.5593597 -0.5048086 -0.7664429 0.048332717 0.3637041
0.18013792 0.32438135 -0.0035337452 0.035931222 -0.6374842 0.41561383 -0.65495104 -0.031609304
-0.33068973 -1.2930787 -0.8990003 -0.22659563 0.023733983 0.51415914 0.24156319 0.20446557
-0.0759567 -0.13371363 0.44048157 -0.6434324 -0.735511 -0.3968059 0.40343353 -0.5693483

l2.bias f4 [10]
00000000: 0f1d 583d 3384 db3d a53e c63c aa9f 2abd
00000010: 12ba 73bc 6184 9fbc 6ec4 3e3d df12 cb3d
00000020: bb11 96bc a4cb db3d
0.052762087 0.107185744 0.024199793 -0.041656174 -0.014875906 -0.019472303 0.04657405 0.09915709
-0.018319001 0.10732201
